Model: "Depthwise_model"
_________________________________________________________________
Layer (type)                 Output Shape              Param #   
=================================================================
reshape (Reshape)            (None, 1, 1000, 8)        0         
_________________________________________________________________
depthwise_conv2d (DepthwiseC (None, 1, 1000, 40)       640       
_________________________________________________________________
max_pooling2d (MaxPooling2D) (None, 1, 166, 40)        0         
_________________________________________________________________
depthwise_conv2d_1 (Depthwis (None, 1, 166, 160)       640       
_________________________________________________________________
max_pooling2d_1 (MaxPooling2 (None, 1, 33, 160)        0         
_________________________________________________________________
spatial_dropout2d (SpatialDr (None, 1, 33, 160)        0         
_________________________________________________________________
flatten (Flatten)            (None, 5280)              0         
_________________________________________________________________
dense (Dense)                (None, 1000)              5281000   
_________________________________________________________________
dropout (Dropout)            (None, 1000)              0         
_________________________________________________________________
dense_1 (Dense)              (None, 200)               200200    
_________________________________________________________________
dropout_1 (Dropout)          (None, 200)               0         
_________________________________________________________________
dense_2 (Dense)              (None, 200)               40200     
_________________________________________________________________
dropout_2 (Dropout)          (None, 200)               0         
_________________________________________________________________
dense_3 (Dense)              (None, 100)               20100     
_________________________________________________________________
dropout_3 (Dropout)          (None, 100)               0         
_________________________________________________________________
dense_4 (Dense)              (None, 50)                5050      
_________________________________________________________________
dense_5 (Dense)              (None, 6)                 306       
_________________________________________________________________
reshape_1 (Reshape)          (None, 3, 2)              0         
=================================================================
Total params: 5,548,136
Trainable params: 5,548,136
Non-trainable params: 0
_________________________________________________________________
data_dir: C:\Users\hbkm9\Documents\Projects\CYB\Experiment3\Processed\NDMS01_Processed\Data
window_size: 1000
delay: 0
gap_windows: None
stride: 60
freq_factor: 20
file_names: ['Angu
…
